artifacts/cnn:v3/model.pth (torch, 903281 bytes, 8 tensors)

conv1.weight f4 [32, 1, 3, 3]
0	0x3dac7f2f	0.08422696
1	0xbdc7bfbd	-0.09753368
2	0xbdcc8be3	-0.09987619
3	0x3d7f0fbd	0.06227087
4	0xbf00662f	-0.5015592
5	0x3cc7aa08	0.02437307
6	0x3e75bc13	0.23997526
7	0x3e0f4eec	0.1399495
8	0x3e839c04	0.25704968
9	0x3e3e99da	0.18613377
10	0xbde8854a	-0.11353548
11	0xbed9b8ab	-0.42523703
12	0xbdb6e8b0	-0.089311
13	0xbf0b63da	-0.54449236
14	0x3d4cba55	0.049982388
15	0xbee04e73	-0.43809852
16	0x3e230be2	0.15922502
17	0x3e97d560	0.2965498
18	0xbe58d3f5	-0.21174605
19	0x3dc28eb3	0.09499874
20	0x3c352bb9	0.011057788
21	0x3db62e8a	0.08895595
22	0x3cb8c2e1	0.022553863
23	0xbe28cdcd	-0.16484757
24	0xbec6a9e0	-0.3880148
25	0xbd6a8856	-0.057258926
26	0xbde07df1	-0.109615214
27	0xbeb8a1fb	-0.3606108
28	0x3e5c67e3	0.21524005
29	0x3df019b5	0.11723653
30	0x3e06b837	0.1315621
31	0x3e61c053	0.22046022
32	0xbd9e5bde	-0.07732366
33	0x3e1ac263	0.15113215
34	0xbdb2e1b1	-0.087344535
35	0xbe8e208b	-0.27759203
36	0x3e1d980e	0.15390036
37	0x3d061b67	0.032740977
38	0xbdca90aa	-0.09890874
39	0x3e382f56	0.17986807
40	0xbe5a6aca	-0.213298
41	0x3d58d40a	0.05293659
42	0x3e157e8f	0.1459906
43	0x3ccc899b	0.02496796
44	0xbee2bc10	-0.44284105
45	0xbd8bd1fe	-0.06827162
46	0x3d7696cc	0.060202405
47	0x3e2b3360	0.16718817
48	0x3e221c23	0.15831046
49	0x3da12978	0.07869238
50	0x3e2443bc	0.16041464
51	0xbe5fa52e	-0.21840355
52	0xbe860485	-0.26175323
53	0xbeb27cb8	-0.34860778
54	0x3e719c36	0.23594746
55	0xbd30d192	-0.04316861
56	0x3d0ad78e	0.033896975
57	0xbe95b9dc	-0.29243362
58	0x3da88c66	0.08229904
59	0xbecbab44	-0.39779103
60	0xbe0e172e	-0.1387603
61	0xbe0aa3cd	-0.13539048
62	0xbe82f1c3	-0.25575075
63	0xbe840ab3	-0.25789413
64	0x3e9fbdf2	0.31199604
65	0x3ca2f919	0.01989417
66	0xbe3b2bf6	-0.18278489
67	0xbd9ce615	-0.07661072
68	0x3d4d6fcb	0.050155442
69	0xbf23a199	-0.63918453
70	0x3d2858d8	0.041100353
71	0xbc7e911c	-0.015537526
72	0xbd5e3ece	-0.054259114
73	0xbcd39c79	-0.025831448
74	0x3e83ae2a	0.25718814
75	0xbf0d2d0c	-0.5514686
76	0x3da19a2e	0.078907356
77	0xbab1da90	-0.0013569165
78	0xbe5dc7f9	-0.21658315
79	0xbeb83154	-0.35975134
80	0xbe7e54c5	-0.24837025
81	0xbdef4ff7	-0.11685174
82	0x3e13927e	0.14411351
83	0xbd78c9ce	-0.06073933
84	0xbe9654d4	-0.29361594
85	0x3e2a66ba	0.1664075
86	0xbe87c9ce	-0.26521152
87	0x3c6c624f	0.0144277355
88	0x3dfd350c	0.123636335
89	0xbeab0091	-0.3339887
90	0x3d9f6fe3	0.077850126
91	0x3dbe28aa	0.092851
92	0xbf087204	-0.53298974
93	0xbebb32c0	-0.36562157
94	0xbd986d5f	-0.07442736
95	0xbe2c5faa	-0.16833368
96	0xbc93ef24	-0.018058367
97	0x3ea66bd1	0.32504132
98	0x3dcc558e	0.09977256
99	0xbe1aaa38	-0.15103996
100	0xbe7fafb0	-0.24969363
101	0x3d813e3c	0.063106984
102	0xbe7949a4	-0.24344498
103	0x3d182050	0.03714019
104	0x3dd2e7eb	0.10298141
105	0xbe7446c3	-0.23855118
106	0x3c4c0964	0.012453411
107	0x3dece0b4	0.11566296
108	0x3dc735a4	0.09727028
109	0xbdef4322	-0.116827264
110	0xbead5c63	-0.33859548
111	0x3e8d248c	0.27566946
112	0xbe2b8802	-0.16751102
113	0xbde63f0d	-0.11242495
114	0xbe2974ff	-0.16548537
115	0xbf26f98b	-0.6522452
116	0xbe2f36b6	-0.17110714
117	0x3e000044	0.12500101
118	0xbee852d2	-0.45375687
119	0xbe1dbb24	-0.1540342
120	0xbea1d984	-0.31611264
121	0x3f04d4af	0.5188703
122	0x3e479883	0.19491772
123	0x3e200ca7	0.15629826
124	0xbec2a090	-0.38013124
125	0xbea06dd3	-0.3133379
126	0xbe4fc24c	-0.20288962
127	0xbe1f0edf	-0.15533017
128	0x3e078e7b	0.13237946
129	0xbe597ff6	-0.2124022
130	0xbe990dd0	-0.2989335
131	0xbe7e687a	-0.24844542
132	0x3e185edc	0.14879936
133	0xbec359c5	-0.38154426
134	0xbe9eaa31	-0.3098922
135	0xbdb80279	-0.089848466
136	0x3ed5424e	0.4165215
137	0xbec86ac7	-0.39143965
138	0xbea6473b	-0.3247622
139	0x3e3f72c7	0.18696128
140	0xbe592b30	-0.21207881
141	0xbe2821ab	-0.16419093
142	0x3dfa5105	0.122224845
143	0xbd4df367	-0.050280955
144	0x3e87fe33	0.26561126
145	0xbf22f061	-0.6364804
146	0x3e22fd67	0.15916978
147	0xbde1c0b2	-0.11023082
148	0xbea7fcc9	-0.32810047
149	0x3e035db2	0.1282871
150	0xbe8a8389	-0.27053478
151	0xbe2383e7	-0.15968286
152	0x3d2b3dab	0.041806858
153	0x3d234321	0.03985894
154	0xbe46caf7	-0.19413362
155	0xbeae031f	-0.33986756
156	0x3d9d82fc	0.07690999
157	0x3ea2b604	0.31779492
158	0x3ec35051	0.38147214
159	0xbe1eb705	-0.15499504
160	0xbee165ae	-0.44022888
161	0x3c88f2c6	0.016717326
162	0xbe7c04e5	-0.24611242
163	0xbe222447	-0.15834151
164	0x3e71515d	0.23566194
165	0x3daa7468	0.08322984
166	0xbe94c776	-0.29058427
167	0xbe996be6	-0.29965132
168	0x3e294931	0.16531827
169	0x3e9536ee	0.2914347
170	0xbe952415	-0.2912909
171	0xbeb63cda	-0.355933
172	0x3ee1728a	0.440327
173	0xbe478a3a	-0.19486323
174	0x3d91ee48	0.07125527
175	0x3e58ab79	0.21159162
176	0xbea3049c	-0.31839454
177	0x3cf61572	0.030039523
178	0x3e34d06c	0.17657632
179	0x3d848cbc	0.064721555
180	0xbe0b7f28	-0.13622725
181	0x3e1e9b45	0.15488918
182	0xbea22d44	-0.3167516
183	0xbe99e4e7	-0.3005745
184	0xbea95af1	-0.33077195
185	0xbf00432c	-0.50102496
186	0xbefd7bc8	-0.495085
187	0x3d0d7ecb	0.034544747
188	0x3cf63f89	0.030059593
189	0xbca9a123	-0.020706719
190	0x3dc44f0e	0.09585391
191	0xbd1d28aa	-0.03836886
192	0x3dfdddff	0.12395858
193	0x3c99f2ae	0.018792477
194	0xbe2eed94	-0.17082816
195	0x3e385e9e	0.18004844
196	0xbe947266	-0.2899353
197	0xbdb5a477	-0.0886926
198	0xbe9dc08e	-0.3081097
199	0xbe0d65e3	-0.13808398
200	0xbe25434f	-0.16138957
201	0xbdf0c8b0	-0.11757028
202	0xbe2d7ca4	-0.16942078
203	0x392d9e10	0.00016557449
204	0x3db94294	0.09045902
205	0x3d5a0542	0.05322767
206	0x3d3e6fab	0.046493214
207	0x3dccf0f9	0.100068994
208	0x3d985c83	0.0743952
209	0xbe8c96bd	-0.27458754
210	0x3d5038b4	0.050835326
211	0x3e43f98f	0.19138168
212	0xbe0969a1	-0.134192
213	0xbdb3ddae	-0.087825164
214	0x3e3d1d77	0.18468271
215	0x3db8481f	0.08998131
216	0xbe90a053	-0.28247318
217	0x3b968250	0.004593171
218	0xbda1877b	-0.07887169
219	0xbe836855	-0.25665537
220	0x3e6ba2fd	0.23011394
221	0x3d2d4ec6	0.042311452
222	0xbe6d1ada	-0.23154774
223	0xbd2541b3	-0.04034586
224	0x3e581064	0.21100003
225	0xbe84b3a2	-0.259183
226	0xbd9ef84c	-0.077622026
227	0xbd3d04ad	-0.046147037
228	0x3e7b754f	0.24556468
229	0x3e1bca4c	0.15213889
230	0x3e631a7a	0.22178069
231	0xbe1b55d3	-0.15169458
232	0x3e168ded	0.14702578
233	0xbdbcb084	-0.09213355
234	0xbe3e12e6	-0.18561897
235	0xbe6477db	-0.22311346
236	0x3ea5f2b9	0.32411745
237	0xbdad8c37	-0.084740095
238	0xbf19155b	-0.5979821
239	0xbde617b7	-0.11234992
240	0x3e816db6	0.25279015
241	0x3c6b7753	0.014371711
242	0xbe1c728c	-0.15278071
243	0x3da32fe6	0.0796812
244	0x3e7adcfa	0.24498358
245	0x3cbb9a12	0.022900615
246	0xbd706867	-0.058693316
247	0x3d33450d	0.043767024
248	0xbdcc7870	-0.09983909
249	0xbea3d8c7	-0.32001325
250	0xbe0c126c	-0.13678902
251	0xbec26146	-0.3796484
252	0x3d8c0953	0.06837716
253	0x3e764ca3	0.24052672
254	0xbe253e01	-0.16136934
255	0x3cf3b112	0.02974752

conv1.bias f4 [32]
0	0xbf447edc	-0.7675607
1	0xbf1178da	-0.5682503
2	0xbf287d1f	-0.6581592
3	0xbf7af349	-0.98027474
4	0xbf51895b	-0.8185021
5	0xbf0bcadd	-0.5460642
6	0xbf15fd70	-0.5858984
7	0xbf077c5d	-0.5292414
8	0xbf0df0c2	-0.5544549
9	0xbf3f1bb9	-0.74651676
10	0xbedbe10b	-0.42945132
11	0xbf119b5b	-0.5687768
12	0xbf01f882	-0.5076982
13	0xbf45ccc0	-0.7726555
14	0xbedfaa94	-0.43684828
15	0xbee90438	-0.4551103
16	0xbf19c1cc	-0.60061336
17	0xbf55799c	-0.83388686
18	0xbee4f49f	-0.4471788
19	0xbf445d6a	-0.7670504
20	0xbeb794ef	-0.35855815
21	0xbf045f79	-0.5170818
22	0xbef2885e	-0.47369665
23	0xbf5b4784	-0.85656
24	0xbefc79ef	-0.49311778
25	0xbf25bde9	-0.64742905
26	0xbed109bf	-0.40827748
27	0xbee728ac	-0.45148218
28	0xbedfbd17	-0.43698952
29	0xbeee4296	-0.46535176
30	0xbf2ba674	-0.6705086
31	0xbedafe66	-0.42772216

conv2.weight f4 [64, 32, 3, 3]
0	0x3e327f82	0.17431453
1	0x3e88d9a2	0.2672854
2	0xbdb4df3a	-0.088316396
3	0xbeda2569	-0.42606667
4	0xbe878ed6	-0.26476163
5	0xbe8c78e4	-0.27435982
6	0xbe35afc3	-0.17742829
7	0x3e388c19	0.18022193
8	0x3e3de182	0.18543056
9	0x3c743937	0.014906219
10	0xbdaa373e	-0.08311318
11	0xbe9a0bab	-0.30087027
12	0xbed71145	-0.42005363
13	0xbefc7559	-0.4930828
14	0x3df7d4c7	0.12101131
15	0xbf0b3a1a	-0.5438553
16	0xbef12728	-0.47100186
17	0xbeaedeb7	-0.34154293
18	0x3e232e28	0.15935576
19	0xbe283127	-0.16425
20	0x3e6a0a3b	0.22855465
21	0x3d349388	0.04408601
22	0xbe3539f3	-0.17697887
23	0xbcc3f940	-0.023922563
24	0x3dc66ea3	0.09689071
25	0xbea9327c	-0.3304633
26	0x3e19dc08	0.15025342
27	0x3de478be	0.11155842
28	0x3db02e09	0.086025305
29	0x3e04bb1c	0.12962002
30	0xbe4274f2	-0.18989924
31	0x3d0faf9c	0.035079584
32	0x3c8a424a	0.016877312
33	0x3c92a7cc	0.017902277
34	0x3da641ac	0.08117995
35	0xbf1395d4	-0.57650495
36	0xbeeb31be	-0.45936388
37	0xbde13136	-0.10995714
38	0xbe4428f3	-0.19156246
39	0x3d6d3dbe	0.05792021
40	0x3e3f4f6d	0.18682642
41	0xbcaf1394	-0.02137164
42	0x3ece8afb	0.4034041
43	0x3e52c8fe	0.20584485
44	0xbd634dcb	-0.05549411
45	0xbe8f8d35	-0.2803742
46	0x3d5421c8	0.05179003
47	0x3ebe9f7e	0.37231058
48	0xbe712582	-0.23549464
49	0xbe1a56e9	-0.15072216
50	0x3edab304	0.42714703
51	0xbed4574e	-0.41472858
52	0xbedfa39d	-0.43679515
53	0x3d1b514a	0.03791932
54	0xbe4c7c26	-0.19969234
55	0x3ec272e2	0.37978274
56	0x3e90bc5f	0.28268716
57	0xbf263be4	-0.64935136
58	0x3cd4c6a3	0.025973624
59	0x3e96f9e3	0.29487523
60	0xbed832cc	-0.42226255
61	0x3e55cde0	0.20879316
62	0xbb236fa6	-0.0024938374
63	0x3cf85fb4	0.030319072
64	0xbe4b3474	-0.19844228
65	0xbe9a4f39	-0.30138567
66	0xbe85f174	-0.26160777
67	0xbf2745b9	-0.65340763
68	0x3e69023e	0.22754762
69	0x3decefb4	0.11569157
70	0x3d8cde9c	0.06878397
71	0x3e27479d	0.16335912
72	0xbe96ef9e	-0.29479688
73	0xbf3fecd7	-0.74970764
74	0xbe6ec572	-0.23317507
75	0xbf828b5c	-1.0198779
76	0xbf27cb58	-0.6554465
77	0x3f21a2f8	0.63139296
78	0x3d7387ff	0.059455868
79	0x3d977b0c	0.07396516
80	0x3e63dff0	0.22253394
81	0xbe3ea2c9	-0.18616785
82	0x3db6ac40	0.08919573
83	0x3daeae62	0.08529355
84	0x3e86c1e1	0.26319793
85	0x3e919764	0.28435814
86	0xbe0dfa1e	-0.13864943
87	0x3e4195fa	0.18904868
88	0x3eb6e57a	0.35721952
89	0xbe3aa706	-0.18227777
90	0xbdfcfb9c	-0.12352678
91	0x3e76a902	0.24087909
92	0x3e82b86d	0.2553133
93	0xbef4bfde	-0.47802633
94	0xbf79837c	-0.97466254
95	0xbed96cde	-0.42465872
96	0xbd86210d	-0.06549273
97	0x3c43d685	0.011953001
98	0x3ea49a57	0.32149002
99	0xbc99a6d9	-0.018756317
100	0xbcf2d27f	-0.029641388
101	0xbf3310aa	-0.699473
102	0xbe19a1c6	-0.15003118
103	0xbf20e70a	-0.6285254
104	0xbec5e5ac	-0.38651788
105	0x3de0845c	0.109627455
106	0xbf8458b2	-1.0339568
107	0xbeb475ed	-0.3524622
108	0xbeedff52	-0.46483856
109	0xbc35043e	-0.011048375
110	0xbcfc7705	-0.030818472
111	0xbe54fec8	-0.20800316
112	0x3d410a0a	0.047128715
113	0xbdf486ed	-0.119397976
114	0xbd239259	-0.03993449
115	0x3dbc077d	0.09181116
116	0xbe4ef833	-0.20211868
117	0xbe8ca9ae	-0.27473205
118	0x3d88edc4	0.06685975
119	0x3d676a1d	0.056497682
120	0xbe4aa954	-0.19791156
121	0x3e4e757b	0.20162003
122	0x3d90dfb8	0.07073921
123	0xbe18e30a	-0.14930359
124	0x3edc7bdd	0.4306325
125	0x3ea552e8	0.32289815
126	0xbee24e5f	-0.44200417
127	0xbfc488ea	-1.5354283
128	0xbf022ed0	-0.5085268
129	0xbf96ff3f	-1.1796645
130	0xbf92aa5a	-1.1458237
131	0xbe1a7779	-0.15084638
132	0xbf033335	-0.5125001
133	0xbccdfeb6	-0.02514587
134	0x3f06563e	0.52475345
135	0x3e85d696	0.2614028
136	0x3ed3aff5	0.41345182
137	0xbd643bf3	-0.055721235
138	0x3acd884b	0.0015680877
139	0xbecfe416	-0.40603703
140	0x3e0d3d3c	0.1379289
141	0x3c21607a	0.009849662
142	0xbd9bd5f9	-0.076091714
143	0xbd852786	-0.06501679
144	0x3debe447	0.1151815
145	0x3e2f3439	0.17109765
146	0xbdc2109c	-0.09475824
147	0xbeaca4e9	-0.33719566
148	0x3eaba25e	0.33522314
149	0x3e882b0c	0.26595342
150	0x3e05c076	0.130617
151	0x3db48e44	0.088161975
152	0xbdee884a	-0.11647089
153	0xbd549d5a	-0.051907875
154	0x3cd6d628	0.026225165
155	0x3ec7ae3e	0.39000124
156	0x3ddfdffa	0.10931392
157	0x3da086a4	0.07838181
158	0x3ec26553	0.3796793
159	0xbc783996	-0.015150448
160	0xbc5d03bb	-0.013489659
161	0x3ea710f0	0.3263011
162	0xbe3d1c4d	-0.18467827
163	0xbed129f0	-0.40852308
164	0x3f079582	0.52962506
165	0xbf9922c2	-1.1963732
166	0xbee5e540	-0.44901466
167	0xbc439d43	-0.01193935
168	0xbefa6559	-0.48905447
169	0x3ec6ee3c	0.38853633
170	0x3f2a756d	0.6658543
171	0xbc27e156	-0.010246595
172	0xbb6181b0	-0.0034409575
173	0x3d1be08c	0.03805594
174	0xbdeea8a9	-0.11653263
175	0x3e00c5e8	0.12575495
176	0xbe98525c	-0.29750335
177	0x3e636942	0.22208121
178	0x3e8eae91	0.2786756
179	0xbf22b760	-0.6356106
180	0xbf2ebdf6	-0.6825861
181	0xbe8c6701	-0.27422336
182	0xbeb9d3aa	-0.362943
183	0xbf4d36cd	-0.80161744
184	0xbf6f5384	-0.9348681
185	0x3ceef303	0.029168611
186	0xbfde6d77	-1.7377156
187	0xbf41dc2e	-0.7572659
188	0xbd91750e	-0.071024045
189	0xbf1d375d	-0.614126
190	0x3de31580	0.11088085
191	0x3da91702	0.082563415
192	0x3db8cd1e	0.09023498
193	0xbb425a05	-0.0029655707
194	0x3e1398aa	0.14413705
195	0x3d563d3c	0.05230449
196	0x3e7f1032	0.24908522
197	0xbe8300d9	-0.25586584
198	0x3e6b3b89	0.2297193
199	0x3e82400a	0.25439483
200	0x3ea71b91	0.3263822
201	0xbed217d3	-0.410338
202	0xbebc0e98	-0.36729884
203	0xbe7aeca1	-0.2450433
204	0xbdf85649	-0.121258326
205	0xbec488c6	-0.383856
206	0xbecdafec	-0.4017328
207	0xbdb78684	-0.08961204
208	0xbe45a598	-0.1930145
209	0x3dc03231	0.09384573
210	0x3da37a14	0.07982269
211	0xbe9c0b5a	-0.3047741
212	0xbdcf616f	-0.10126006
213	0x3ee41c51	0.44552854
214	0x3d9e97a5	0.07743768
215	0xbac9f1cc	-0.0015407144
216	0xbd949e0e	-0.07256709
217	0xbf048cc8	-0.51777315
218	0xbe60acd8	-0.21940935
219	0x3d0aef9d	0.03391992
220	0xbe900e96	-0.28136128
221	0xbd82ea76	-0.06392376
222	0x3de9e2d7	0.114202194
223	0x3d675a57	0.05648264
224	0x3e20859b	0.15675966
225	0x3dbec64f	0.09315168
226	0x3e50bbbc	0.20384115
227	0x3ea2f49b	0.31827244
228	0x3d4b941e	0.049701802
229	0xbe863163	-0.26209554
230	0xbd88bbbe	-0.06676434
231	0x3d9450a8	0.072419465
232	0xbe015060	-0.12628317
233	0xbf261e23	-0.64889735
234	0xbfa8a942	-1.3176653
235	0xbf3cfbfd	-0.73822004
236	0xbe79fa9c	-0.24412006
237	0xbf88e01f	-1.0693396
238	0xbe9bf2ec	-0.30458772
239	0x3e7d1bd6	0.2471765
240	0x3db7701b	0.08956929
241	0x3ee7342a	0.45156986
242	0x3f1cb2de	0.6121043
243	0xbed24fbe	-0.41076463
244	0x3e3620e4	0.17785984
245	0x3e9cd98b	0.30634722
246	0xbf234cf6	-0.6378931
247	0x3d543c4d	0.05181532
248	0x3eb41a25	0.35176197
249	0xbeb0ff27	-0.34569666
250	0xbe1457c8	-0.14486611
251	0xbe570833	-0.20999222
252	0xbe83b274	-0.25722086
253	0x3e7db783	0.24777035
254	0x3c9e5afe	0.019330498
255	0xbef2a20e	-0.47389263

conv2.bias f4 [64]
0	0xbe2cae1e	-0.16863295
1	0xbdd86fdd	-0.10568211
2	0xbe3676f0	-0.17818809
3	0xbe45cbd6	-0.19316038
4	0xbd728164	-0.059205428
5	0xbdfe380e	-0.12413035
6	0xbdd99633	-0.10624351
7	0xbe0d063b	-0.13771908
8	0xbdadcb37	-0.08486026
9	0x3e847381	0.25869372
10	0xbd993a7f	-0.0748186
11	0xbd78cfff	-0.060745236
12	0x3d4be795	0.0497814
13	0xbdcbd232	-0.09952201
14	0x3bf7319e	0.0075437566
15	0xbe56db3e	-0.20982072
16	0x3d5ba601	0.05362511
17	0xbe16ba7a	-0.14719573
18	0x3dc96679	0.09833998
19	0xbe209f59	-0.15685786
20	0xbdf49e74	-0.11944285
21	0xbcb2c166	-0.021820735
22	0x3ec26582	0.3796807
23	0xbe6d2509	-0.23158659
24	0xbeb419d8	-0.35175967
25	0xbe338b2e	-0.17533562
26	0xbd8e9c10	-0.0696336
27	0xbe32fc25	-0.17478998
28	0xbe26afec	-0.16278046
29	0xbe682243	-0.2266932
30	0xbe141912	-0.14462689
31	0x3eada1ec	0.339126
32	0xbd4cb3ac	-0.049976036
33	0x3d96fe63	0.07372739
34	0x3e40d38e	0.18830702
35	0x3e56d970	0.20981383
36	0xbcd1313e	-0.025536176
37	0xbda8c519	-0.082407184
38	0xbe9050df	-0.281867
39	0xbdd28ddd	-0.102809645
40	0x3e39dc29	0.1815039
41	0xbd85981f	-0.065231554
42	0xbe75e437	-0.24012838
43	0xbdc62356	-0.096747085
44	0xbe1cbfe5	-0.15307577
45	0xbe20bd15	-0.15697129
46	0x3dbd7da9	0.092524834
47	0x3e5611f4	0.20905286
48	0xbeb308cf	-0.34967658
49	0xbe9191fa	-0.28431684
50	0xbd16bae3	-0.036799323
51	0xbda4644a	-0.08026941
52	0x3d3e3e73	0.046446275
53	0x3e7f72c2	0.2494612
54	0xbe6df47c	-0.23237795
55	0x3cb4aa40	0.022053838
56	0xbdd5b4fc	-0.10434911
57	0xbda804e8	-0.08204061
58	0xbe358780	-0.1772747
59	0xbe09f5f8	-0.13472736
60	0xbe030a4f	-0.12796901
61	0xbdab7b74	-0.08373156
62	0xbdf2e3c2	-0.118598476
63	0xbe96f01d	-0.29480067

fc1.weight f4 [128, 1600]
0	0xbce9aaca	-0.028523821
1	0x3b9fb706	0.004874113
2	0xbbf885ff	-0.007584333
3	0xbd234935	-0.039864738
4	0xbce31364	-0.027719207
5	0xbbf8272b	-0.0075730286
6	0xbd0d78df	-0.0345391
7	0x3af69e56	0.0018815498
8	0xbca495be	-0.020090934
9	0xbc80739a	-0.015680123
10	0xbd29754f	-0.04137164
11	0x3ad9573d	0.0016581785
12	0xbc4ac91c	-0.01237705
13	0xbc1f99f1	-0.009741292
14	0xbbe4d717	-0.0069836485
15	0xbd30ecd5	-0.04319461
16	0x3bab0ce1	0.005220041
17	0xbd2c4a78	-0.042063206
18	0xbcf6b055	-0.030113379
19	0xbbebf3f6	-0.0072007133
20	0xbc2720db	-0.010200704
21	0xbcd5a793	-0.026080882
22	0xbb64bd51	-0.003490288
23	0x3bc16f1b	0.0059031374
24	0xbbc8b0a5	-0.0061245733
25	0x3bd05f18	0.0063589923
26	0xbcde20f7	-0.027115328
27	0x3bb6f506	0.0055834083
28	0xbcfb63b2	-0.030687187
29	0xbbd12e35	-0.006383682
30	0xbbe461d2	-0.006969669
31	0x3b788916	0.0037923506
32	0xbc87b3b4	-0.016565181
33	0xbcb775bb	-0.022395005
34	0xbcd2e4b5	-0.025743822
35	0xbd2f6939	-0.042824958
36	0xbcb3a117	-0.0219274
37	0xbb5b6319	-0.0033475815
38	0xbd307d4f	-0.043088254
39	0xb8050aa2	-3.1719574e-05
40	0xbc2e5b21	-0.010641844
41	0xbb82b99b	-0.003989411
42	0xbcfe7f60	-0.031066597
43	0xbcf89771	-0.03034565
44	0xbca991fb	-0.020699492
45	0x3a2e69cb	0.00066533376
46	0xbc07169f	-0.008245139
47	0x3ab46dbf	0.0013765617
48	0x3a9a56c1	0.0011775122
49	0xbd14a090	-0.036285937
50	0xbbc6461b	-0.0060508377
51	0xbba81ce7	-0.0051303986
52	0xbd0fc711	-0.035101954
53	0xbcfdeb74	-0.030996062
54	0xbc29e0cc	-0.010368537
55	0xbcf9be57	-0.030486269
56	0xbc937b66	-0.018003177
57	0xbd1b936f	-0.0379824
58	0xbd08b10d	-0.033371974
59	0xba887f4a	-0.0010413912
60	0xbd013389	-0.03154329
61	0xbb44ffaa	-0.0030059614
62	0xbb7d5649	-0.0038656166
63	0xbd200960	-0.03907144
64	0xbd129643	-0.035787832
65	0xbc825f0c	-0.015914463
66	0xbcff0d16	-0.03113417
67	0xbcee35e9	-0.02907844
68	0x3ad8bcc6	0.0016535751
69	0xbc8f79b7	-0.017514093
70	0xbc9c766c	-0.019099437
71	0x3a356de0	0.00069209747
72	0xbc1d8467	-0.009614087
73	0xbc7cfe3c	-0.015441474
74	0xbd148b0e	-0.036265425
75	0xbccd3c50	-0.025053173
76	0x3abba306	0.0014315553
77	0xbd15ddf1	-0.036588613
78	0xbc9a73c7	-0.018854035
79	0x3c3a5db0	0.011374876
80	0x3aa12b74	0.0012296275
81	0xbcbab2e2	-0.022790376
82	0xbc5e157f	-0.01355493
83	0x3ac59249	0.0015073504
84	0xbbd672af	-0.006544433
85	0xbc7cf72c	-0.01543979
86	0xbc914314	-0.01773218
87	0xbd28fdd0	-0.04125768
88	0xba7a3c98	-0.00095457723
89	0xbae43fb7	-0.0017414008
90	0x3b6c746c	0.0036080135
91	0xbcfba2ff	-0.030717371
92	0xbcd529f4	-0.026020981
93	0x3b3caa3b	0.0028787989
94	0x3bc0ab3b	0.0058797873
95	0x3b395eda	0.0028285296
96	0xbd1770f4	-0.036972955
97	0x3b5dbf6c	0.003383602
98	0xbc86970a	-0.016429443
99	0xbcb149ee	-0.021641698
100	0xbc5e4be6	-0.0135679
101	0xbb549b3c	-0.003244116
102	0xbd1fd6eb	-0.03902332
103	0xbd2d416d	-0.042298723
104	0xbc8e692b	-0.017384132
105	0xbcb5ec35	-0.022207359
106	0xbb5833f5	-0.0032989953
107	0x3b2a96e6	0.0026029884
108	0x3ac0878b	0.0014688832
109	0xbcdc3bbe	-0.026883956
110	0x3a88c1e7	0.0010433764
111	0xbc3f6a80	-0.011683106
112	0xbce233eb	-0.027612647
113	0xbcff640b	-0.031175634
114	0xbc026b90	-0.007960215
115	0xbcf20eb0	-0.02954802
116	0xbc211b60	-0.009833187
117	0xbd007631	-0.031362716
118	0xbc7bacca	-0.01536102
119	0x3d27639a	0.04086647
120	0xbc6f4bbb	-0.014605458
121	0xbc43aa82	-0.011942508
122	0xbc8c4c3e	-0.017126199
123	0xbb690d2c	-0.003556083
124	0xbca15743	-0.01969493
125	0xbcf428f0	-0.029804677
126	0xbd247def	-0.040159162
127	0xbce6cf6c	-0.028175078
128	0x3b6af37d	0.0035850697
129	0xbd08bad6	-0.033381306
130	0xbd1ffe0e	-0.039060645
131	0x3bb98af5	0.005662317
132	0xbce5e907	-0.028065218
133	0xbc961d67	-0.018324567
134	0xbc398b91	-0.011324779
135	0xbc85a942	-0.01631606
136	0xbd0ff90e	-0.035149626
137	0xbc45555d	-0.012044278
138	0xbc166add	-0.009180752
139	0xbcc0e1c4	-0.023545153
140	0x3ab3419a	0.0013676167
141	0xbd1c39b0	-0.038140953
142	0xba905d14	-0.0011014068
143	0xbc15bb19	-0.009138846
144	0xbcc8976d	-0.024486268
145	0xbc1935fd	-0.009351251
146	0xbb34e95f	-0.002760492
147	0xbca9657c	-0.020678274
148	0xbd10cd72	-0.035352178
149	0xbd2d3d36	-0.042294703
150	0xbca96f43	-0.020682937
151	0xba92f48a	-0.0011211794
152	0xbd19a892	-0.037514277
153	0x3bca446b	0.006172707
154	0xbcd8a53f	-0.026445983
155	0xbd280589	-0.041020904
156	0xbc3d908b	-0.011570106
157	0x3a457721	0.0007532705
158	0xbd1d9078	-0.038467854
159	0xbcea6598	-0.028612897
160	0xbd08e200	-0.033418655
161	0xbbc48659	-0.005997461
162	0xbc35f88d	-0.011106622
163	0xbcf52ab5	-0.02992759
164	0xbd0c64a3	-0.034275662
165	0xbb140325	-0.0022584882
166	0x3b076c87	0.0020664053
167	0xbcfeaf55	-0.031089464
168	0xbc1c6024	-0.009544406
169	0x3ab9264c	0.0014125793
170	0xbb3f137a	-0.0029155896
171	0xbcf6fca6	-0.030149769
172	0xbcff8d60	-0.031195343
173	0xbcce8da9	-0.025214033
174	0xbca64867	-0.020298196
175	0xbb3d3d1c	-0.0028875535
176	0xbca124c7	-0.019670857
177	0xbd0d4ed2	-0.034498997
178	0xbbab39af	-0.0052253823
179	0xbbe09519	-0.0068537113
180	0x3bab8e5c	0.0052354764
181	0xbcff2235	-0.03114424
182	0xbd09b8ba	-0.033623435
183	0xbd0fc2a7	-0.035097744
184	0xbcc21b5d	-0.023694688
185	0x3ba9f4c6	0.00518665
186	0xbc901ee2	-0.017592851
187	0xbcbb53db	-0.022867134
188	0xbca749d3	-0.020420944
189	0xbc86b2cc	-0.016442679
190	0xbcd82e24	-0.026389189
191	0xbd1e27bb	-0.03861211
192	0xbcac2b20	-0.021016657
193	0xbceaa582	-0.028643373
194	0xbc7511aa	-0.014957825
195	0xbd31fb6e	-0.043452673
196	0x3bb4add8	0.005513888
197	0xbd2fc42f	-0.042911705
198	0xbc4dcaf1	-0.012560592
199	0xbc40852b	-0.0117505
200	0xbbc0a3e8	-0.005878914
201	0xbcbaa13a	-0.022781957
202	0xbd152759	-0.036414478
203	0xb8bffff9	-9.155268e-05
204	0xbcbb6d21	-0.022879185
205	0xbb991d48	-0.00467268
206	0xbc20cf65	-0.009815072
207	0xb9b84b23	-0.00035151196
208	0x3cc0cc75	0.023534993
209	0x3b6f0f1a	0.0036477507
210	0x3bc1cca9	0.00591429
211	0xbcb6a689	-0.022296207
212	0xbc9f2e00	-0.019431114
213	0x3abff51a	0.001464519
214	0xbc54ac8c	-0.0129805915
215	0xbcaed834	-0.021343328
216	0xbc1177d9	-0.008878672
217	0xbb8211c4	-0.003969403
218	0xbcd8e615	-0.0264769
219	0xbad624e6	-0.0016337901
220	0xbcaad565	-0.020853708
221	0xbc504f1b	-0.012714173
222	0x39378de6	0.00017505101
223	0xbcf44bad	-0.029821241
224	0xbcf8bed4	-0.030364431
225	0xbce24cbc	-0.02762448
226	0xba8c6cd8	-0.001071359
227	0xbd05af6b	-0.032637995
228	0xbcd6d76f	-0.026225774
229	0x3bccf18e	0.0062543815
230	0xbca23ccd	-0.019804383
231	0xbd18e08a	-0.037323512
232	0xbce65926	-0.028118681
233	0xbcbc365c	-0.02297514
234	0xbd01b409	-0.031665836
235	0xbd2d23c5	-0.04227044
236	0xbb7138fa	-0.0036807642
237	0xba996dca	-0.0011705693
238	0xbc3acbfd	-0.011401174
239	0xbc9fb5a3	-0.01949579
240	0xbd225947	-0.039635923
241	0xbd199fd1	-0.03750593
242	0xbd1dba84	-0.038507953
243	0xbc491f0f	-0.012275471
244	0xbc0ac9e4	-0.008470986
245	0xbcd5c7fa	-0.026096333
246	0xbc74308f	-0.014904155
247	0xbc0e7979	-0.0086959535
248	0xbadf1d35	-0.0017022254
249	0x3b23e058	0.0025005545
250	0xbca66ac8	-0.02031459
251	0xbb325368	-0.0027210359
252	0xbced557f	-0.028971432
253	0xbc0468ed	-0.008081657
254	0xbcc76acd	-0.024342919
255	0xbc4c8ced	-0.012484771

fc1.bias f4 [128]
0	0xbb90e5a1	-0.004421905
1	0xbdf4536b	-0.11929973
2	0xbe6f4343	-0.23365502
3	0xbd59a43b	-0.053135138
4	0xbdee1ae4	-0.11626223
5	0xbe25273b	-0.16128246
6	0xbcfd98ba	-0.030956615
7	0x3d9b5c4d	0.07585964
8	0xbc30be83	-0.010787609
9	0x3bcd2b06	0.0062612323
10	0xbc202c28	-0.009776153
11	0xbe018bc4	-0.12650973
12	0xbe1df636	-0.15425953
13	0xbcca5c58	-0.024702236
14	0xbdf12a68	-0.117756665
15	0xbe034a41	-0.12821294
16	0x3c1b710b	0.009487401
17	0xbe4f0d01	-0.20219804
18	0xbeb1484e	-0.34625477
19	0xbdf9a131	-0.12188948
20	0xbe83c01b	-0.25732502
21	0xbed8eb8d	-0.4236721
22	0xbe8f65a3	-0.2800723
23	0xbc4672ef	-0.012112363
24	0xbcd2571b	-0.0256763
25	0x3d9efe2a	0.07763322
26	0xbe1466d3	-0.1449235
27	0xbc359a25	-0.011084114
28	0xbe4588ac	-0.19290417
29	0xbde5ef57	-0.11227291
30	0xbd833b8b	-0.06407841
31	0xbd1c0320	-0.038088918
32	0xbca10102	-0.0196538
33	0xbe7f88b0	-0.24954486
34	0xbe62fac4	-0.22165972
35	0xbce5b4ec	-0.028040372
36	0xbe4eadf9	-0.20183553
37	0xbe7a05d7	-0.2441629
38	0xbe34573d	-0.17611404
39	0xbe53582e	-0.20639107
40	0xbd33873f	-0.043830153
41	0xbd2b59e0	-0.04183376
42	0xbc7f83bd	-0.015595374
43	0xbc1d5f5f	-0.009605258
44	0x3d10b443	0.03532816
45	0xbcbc0efa	-0.02295636
46	0xbd5d03ea	-0.05395881
47	0xbe4c5320	-0.19953585
48	0xbd4dfc0d	-0.050289202
49	0xbe0ae965	-0.13565595
50	0xbdb0aaa6	-0.086262986
51	0x3e13ffc0	0.1445303
52	0xbe4eb3e7	-0.20185815
53	0xbe636ac4	-0.22208697
54	0xbe6806df	-0.22658871
55	0x3b7d00fa	0.0038605318
56	0xba89947c	-0.0010496522
57	0xbe44eff4	-0.1923216
58	0xbe721382	-0.23640254
59	0xbcf015fb	-0.029307356
60	0xbe771469	-0.2412888
61	0x3da43e61	0.0801971
62	0xbd9cca99	-0.0765583
63	0x3d29adcb	0.041425508
64	0xbdf5a100	-0.11993599
65	0xbe2e1753	-0.17001085
66	0xbdb70e3a	-0.089382604
67	0x3bd0d282	0.0063727507
68	0xbe80b4e8	-0.2513802
69	0xbcf5127d	-0.029916042
70	0xbe079ee6	-0.13244209
71	0xbd7f3061	-0.062301997
72	0xbe81a0d7	-0.25318024
73	0xbe0790bc	-0.13238806
74	0xbe738193	-0.23779897
75	0x39da24e8	0.00041607697
76	0xbe389cf3	-0.18028621
77	0xbd05d8da	-0.03267751
78	0xbb65be66	-0.0035056113
79	0xbe1f9176	-0.15582833
80	0xbc8da9b0	-0.017292827
81	0xbe323885	-0.17404373
82	0xbd5e3b43	-0.054255735
83	0xbecb47e7	-0.39703295
84	0xbe9497f9	-0.29022196
85	0xbe34b145	-0.17645748
86	0xbba08080	-0.004898131
87	0x3daa5193	0.0831634
88	0x3dad3c4e	0.08458768
89	0x3c344bf9	0.011004441
90	0xbdc0fb5b	-0.09422942
91	0xbcf0dd99	-0.029402541
92	0xbed79cd1	-0.4211183
93	0xbe4ee638	-0.20205009
94	0xbd436d9b	-0.04771195
95	0xbdca3cc8	-0.09874874
96	0x3e38bcfb	0.1804084
97	0xbe2d3333	-0.16914062
98	0xbe8383d4	-0.25686514
99	0xbd98e93d	-0.07466362
100	0xbe874f4a	-0.2642768
101	0xbb43ad2d	-0.002985786
102	0xbcb916ca	-0.022593874
103	0xbe36c1cf	-0.1784737
104	0xbe87db8b	-0.26534685
105	0xbd797934	-0.060906604
106	0x3eb01ac5	0.34395424
107	0xbe9732c0	-0.29530907
108	0xbe21ac50	-0.15788388
109	0xbec7b1b6	-0.3900277
110	0xbe4869db	-0.1957163
111	0xbe39565d	-0.18099351
112	0x3ceb3b22	0.02871472
113	0xbcb41a92	-0.021985326
114	0xbd31b94d	-0.043389607
115	0xbd5c37e9	-0.053764258
116	0xbd4518ea	-0.048119463
117	0xbcdfcd0e	-0.027319457
118	0xbd90db5f	-0.07073092
119	0xbe973e94	-0.2953993
120	0x3d5c9f73	0.053863
121	0xbd2cb78c	-0.04216723
122	0xbd0a6089	-0.03378347
123	0xbe89d5f4	-0.26921046
124	0xbcbb22de	-0.022843774
125	0xbd10f133	-0.035386276
126	0xb9bfb740	-0.0003656689
127	0xbbd5961f	-0.00651814

fc2.weight f4 [10, 128]
0	0xbda8beb0	-0.08239496
1	0x3e372f98	0.1788925
2	0x3d2cc716	0.04218205
3	0xbdde78a8	-0.10862857
4	0x3bb4ae68	0.005513955
5	0x3e236135	0.1595505
6	0x3d5a6c4b	0.053325932
7	0xbe1cd7c4	-0.15316683
8	0xbd83dc32	-0.06438483
9	0xbdb25d6e	-0.087092265
10	0xbd7ff97e	-0.062493794
11	0xbe27f689	-0.1640264
12	0xbdcd0a5b	-0.10011741
13	0x3c7fa5f2	0.015603529
14	0x3ec91a3a	0.39277822
15	0xbe8487b5	-0.25884786
16	0xbc23eaba	-0.010004694
17	0x3e311c7e	0.17296025
18	0xbea9b7d6	-0.33148068
19	0xbea5c479	-0.3237646
20	0xbb34c7fe	-0.0027585025
21	0xbe19cbbe	-0.15019128
22	0xbefba2c7	-0.49147627
23	0x3d298872	0.04138989
24	0xbd1c2288	-0.03811887
25	0xbd41d0a0	-0.0473181
26	0xbd8d13fc	-0.06888577
27	0xbd8a9d0d	-0.06768236
28	0x3e8d534b	0.2760261
29	0xbeac987a	-0.3371008
30	0x3d22a7e2	0.039710887
31	0xbd80077b	-0.06251427
32	0x3e5a535a	0.21320859
33	0xbe21d1cf	-0.15802692
34	0xbd7f7198	-0.06236419
35	0x3dd17337	0.102270536
36	0xbf18e730	-0.59727764
37	0xbeb7d0c9	-0.35901478
38	0x3e34fe26	0.17675075
39	0x3e0e9664	0.13924557
40	0xbe8b8a23	-0.27253827
41	0xbc5c9b36	-0.01346474
42	0x3db15954	0.08659616
43	0xbd42d103	-0.04756261
44	0xbf0053a1	-0.5012761
45	0xbd4e22df	-0.050326224
46	0xbd812705	-0.063062705
47	0xbec4c5d6	-0.38432187
48	0xbe3a87e7	-0.18215905
49	0x3e9ea3b0	0.3098426
50	0xbde82db1	-0.1133684
51	0xbf33286a	-0.6998354
52	0xbe2dbe80	-0.16967201
53	0x3d9268f6	0.07148926
54	0xbe9f1dd5	-0.31077448
55	0xbd2b45dc	-0.04181467
56	0x3d117778	0.035514325
57	0xbeb55c18	-0.35421824
58	0xbeee9b7a	-0.46602994
59	0x3d671da1	0.05642474
60	0x3c830cbe	0.015997287
61	0x3d3fa373	0.046786737
62	0x3e873ded	0.26414433
63	0xbe6a9fe2	-0.22912553
64	0xbed126a3	-0.4084979
65	0x3ebd8b00	0.3702011
66	0xbecc18d1	-0.39862683
67	0x3e751ede	0.23937556
68	0xbe1421e3	-0.14466052
69	0x3d843c6d	0.06456838
70	0x3deb6b9f	0.114951365
71	0x3d89bd59	0.06725568
72	0xbe1cf352	-0.15327194
73	0xbe023ac6	-0.12717733
74	0xbeea6ff4	-0.45788538
75	0x3e8d31d6	0.27577084
76	0x3e1bc31a	0.15211144
77	0xbd3504e4	-0.044194117
78	0x3d897de2	0.06713463
79	0x3e6c9cc2	0.23106673
80	0xbc8767e5	-0.016529033
81	0xbea5b289	-0.32362774
82	0xbe37c2a4	-0.17945343
83	0x3e67fd7d	0.22655292
84	0xbe36bb6d	-0.17844935
85	0xbd53e91f	-0.051735993
86	0xbd640b42	-0.0556748
87	0xbf1f876a	-0.62316
88	0xbe0af854	-0.13571292
89	0x3cc698ca	0.024242777
90	0x3d6a3f6f	0.0571894
91	0x3d61e369	0.055148516
92	0x3d5c9446	0.053852342
93	0xbe74ab96	-0.2389358
94	0x3d721e00	0.05911064
95	0xbef3345f	-0.47500893
96	0xbecf95b8	-0.40543914
97	0xbebf5846	-0.37372035
98	0xbdea86c3	-0.11451485
99	0xbf20585d	-0.6263483
100	0x3c928070	0.01788351
101	0x3cec1ac0	0.02882135
102	0xbd9b19a7	-0.07573252
103	0x3e05128e	0.1299536
104	0xbe9676b1	-0.2938743
105	0xbd4bff1f	-0.04980385
106	0x3e2ef23d	0.17084594
107	0xbe2c1411	-0.1680453
108	0xbeae7efc	-0.34081256
109	0x3ead164a	0.33806068
110	0xbccf4f22	-0.025306288
111	0x3e97ee97	0.29674217
112	0xbb40aec3	-0.002940104
113	0xbd812127	-0.063051514
114	0x3d8c70dc	0.06857464
115	0x3ae2c79e	0.0017301922
116	0xbf201146	-0.6252636
117	0xbd9ccca6	-0.07656221
118	0xbda7382c	-0.08165011
119	0x3e7e4123	0.24829535
120	0x3e9fd5c8	0.3121779
121	0xbda415d9	-0.080119796
122	0xbd6176f9	-0.0550451
123	0xbe8b14ed	-0.27164403
124	0xbdc33b95	-0.09532849
125	0xbe343fd4	-0.17602473
126	0x3d14a5a9	0.0362908
127	0x3ce05572	0.027384493
128	0x3c05105c	0.008121576
129	0x3c00a787	0.007852442
130	0xbd8ca27a	-0.068669274
131	0x3bd1feb2	0.006408536
132	0x3c6b9055	0.014377673
133	0x3d26772a	0.040640987
134	0x3d6494a1	0.055805806
135	0x3eae7bdd	0.34078875
136	0xbd44ae34	-0.048017696
137	0xbc6c850a	-0.014436016
138	0x3cc6344c	0.024194859
139	0xbcdb9e48	-0.026808873
140	0xbd77236f	-0.060336526
141	0xbd69acc4	-0.057049528
142	0xbe1755bf	-0.14778803
143	0xbd207a9e	-0.039179437
144	0xbd76366b	-0.06011049
145	0xbe6e74aa	-0.23286691
146	0xbe3c76d2	-0.18404701
147	0xbd89133c	-0.06693122
148	0xbe4ee6e0	-0.2020526
149	0xbeda14f0	-0.425941
150	0x3dfe8712	0.12428106
151	0xbbc10227	-0.005890149
152	0xbca5ee13	-0.020255124
153	0xbd9983e9	-0.07495863
154	0xbd8d4f84	-0.06899932
155	0x3c8841ed	0.016632998
156	0xbdbe0aca	-0.092794016
157	0x3dc3a9e1	0.09553886
158	0xbd3d9d2c	-0.04629247
159	0xbd1ead9b	-0.03873978
160	0x3e4cafd6	0.19988951
161	0xbd85588a	-0.06511028
162	0xbe8628f0	-0.26203108
163	0x3d843245	0.06454901
164	0xbd2b139d	-0.04176675
165	0xbd4eabb0	-0.050456703
166	0xbe75ca90	-0.24003053
167	0x3d41eda0	0.047345757
168	0xbbbb4352	-0.0057148123
169	0xbd1dc5e5	-0.038518805
170	0xbcaea26f	-0.021317689
171	0xbd138572	-0.036015935
172	0x3f25542f	0.6458158
173	0x3be8ae4f	0.0071008573
174	0x3d803795	0.062606014
175	0xbe253db5	-0.1613682
176	0x3bf0be21	0.007346884
177	0xbec108dd	-0.37702075
178	0xbe0622fb	-0.13099281
179	0x3e309822	0.17245534
180	0xbd8bc0f5	-0.06823913
181	0xbd8b7a8f	-0.068104856
182	0xbe3cf6ad	-0.18453474
183	0xbba289cf	-0.0049602757
184	0xbd117519	-0.035512064
185	0x3d2cd156	0.042191826
186	0xbe25e35d	-0.16200013
187	0xbd509167	-0.050919916
188	0xbe1f5aa8	-0.15561926
189	0x3e8fa295	0.28053728
190	0xbe6604b5	-0.22462733
191	0x3e1afa71	0.15134598
192	0x3c6bc648	0.014390536
193	0xbf0ccd4c	-0.5500076
194	0xbd1b9909	-0.037987743
195	0xbd94ed20	-0.072717905
196	0xbcdc651c	-0.026903681
197	0x3d3ce31f	0.046115037
198	0xbe8224b4	-0.25418627
199	0x3d9ffcf3	0.07811918
200	0xbeca8074	-0.39551127
201	0x3dbe12fa	0.09280963
202	0xbe7ec79c	-0.24880832
203	0xbddd15c6	-0.107951686
204	0x3b642d21	0.0034816938
205	0x3d1f812c	0.038941547
206	0xbd37200c	-0.044708297
207	0x3c8defec	0.017326318
208	0x3c9621f7	0.018326743
209	0x3d16d2d1	0.036822144
210	0xbb2130f3	-0.0024595826
211	0xbe7174c9	-0.23579706
212	0x3c8293fc	0.015939705
213	0xbec01c0d	-0.375214
214	0x3d5a060e	0.05322843
215	0x3da77823	0.08177211
216	0xbdc2ed21	-0.09517885
217	0xbdb0238a	-0.086005285
218	0xbda16edc	-0.07882473
219	0x3cf6be82	0.030120138
220	0xbe4754d8	-0.19465959
221	0x3dc3d72c	0.09562525
222	0x3cd23751	0.025661143
223	0x3d9b6a27	0.07588606
224	0x3f28814c	0.6582229
225	0x3dc3b758	0.095564544
226	0xbe98d835	-0.29852453
227	0xbd6031bc	-0.05473493
228	0x3dce27ba	0.10066171
229	0xbd221ee0	-0.039580226
230	0x3ce50688	0.027957216
231	0xbd9786eb	-0.073987804
232	0x3c93366b	0.017970284
233	0xbd036eb5	-0.032088
234	0x3eebed3b	0.4607943
235	0xbdbe50e8	-0.092927754
236	0xbe6da77e	-0.23208424
237	0xbe2b65db	-0.16738074
238	0x3c64ff59	0.013976895
239	0xbe821edc	-0.2541417
240	0x3e0b9f5e	0.13635013
241	0xbcc535fb	-0.024073591
242	0x3d0f7b8a	0.035029925
243	0xbdb179dc	-0.08665821
244	0xbeb1bda9	-0.34715012
245	0xbd222139	-0.039582465
246	0x3c964f84	0.018348463
247	0xbe96849d	-0.2939805
248	0x3eac6393	0.3366972
249	0x3d8df42e	0.06931339
250	0x3d210194	0.039308146
251	0xbe46238e	-0.193495
252	0xbaf8f460	-0.0018993728
253	0x3eac20c1	0.3361874
254	0xbcbffd26	-0.02343614
255	0xbd5553e1	-0.052081946

fc2.bias f4 [10]
0	0xbc8458d8	-0.016155645
1	0x3d7d2446	0.06180217
2	0xbe92f56a	-0.2870286
3	0xbd45a697	-0.048254576
4	0x3e8988e9	0.26862267
5	0x3e06e64e	0.13173792
6	0xbedb0dae	-0.42783874
7	0x3dd33281	0.10312367
8	0x3ec98381	0.39358142
9	0xbb06b847	-0.0020556615
